…
<span class="n">model</span><span class="o">.</span><span class="n">add</span><span class="p">(</span><span class="n">Dense</span><span class="p">(</span><span class="mi">133</span><span class="p">,</span> <span class="n">activation</span><span class="o">=</span><span class="s1">&#39;softmax&#39;</span><span class="p">))</span>

<span class="n">model</span><span class="o">.</span><span class="n">summary</span><span class="p">()</span>
</pre></div>

</div>
</div>
</div>

<div class="output_wrapper">
<div class="output">


<div class="output_area">

<div class="prompt"></div>


<div class="output_subarea output_stream output_stdout output_text">
<pre>_________________________________________________________________
Layer (type)                 Output Shape              Param #   
=================================================================
conv2d_6 (Conv2D)            (None, 222, 222, 16)      448       
_________________________________________________________________
max_pooling2d_4 (MaxPooling2 (None, 111, 111, 16)      0         
_________________________________________________________________
dropout_5 (Dropout)          (None, 111, 111, 16)      0         
_________________________________________________________________
conv2d_7 (Conv2D)            (None, 109, 109, 32)      4640      
_________________________________________________________________
conv2d_8 (Conv2D)            (None, 107, 107, 32)      9248      
_________________________________________________________________
max_pooling2d_5 (MaxPooling2 (None, 53, 53, 32)        0         
_________________________________________________________________
dropout_6 (Dropout)          (None, 53, 53, 32)        0         
_________________________________________________________________
conv2d_9 (Conv2D)            (None, 51, 51, 64)        18496     
_________________________________________________________________
conv2d_10 (Conv2D)           (None, 49, 49, 64)        36928     
_________________________________________________________________
max_pooling2d_6 (MaxPooling2 (None, 24, 24, 64)        0         
_________________________________________________________________
dropout_7 (Dropout)          (None, 24, 24, 64)        0         
_________________________________________________________________
global_average_pooling2d_3 ( (None, 64)                0         
_________________________________________________________________
dense_4 (Dense)              (None, 512)               33280     
_________________________________________________________________
dropout_8 (Dropout)          (None, 512)               0         
_________________________________________________________________
dense_5 (Dense)              (None, 133)               68229     
=================================================================
Total params: 171,269.0
Trainable params: 171,269.0
Non-trainable params: 0.0
_________________________________________________________________
</pre>
</div>
</div>

</div>
</div>

</div>
<div class="cell border-box-sizing text_cell rendered"><div class="prompt input_prompt">
</div>
<div class="inner_cell">
<div class="text_cell_render border-box-sizing rendered_html">
…
